…
ports/val_summary.json", "val_signal_confusion_matrix_save_path": "outputs/plots/val_signal_confusion_matrix.png", "val_predictions_save_path": "outputs/plots/val_predictions.png", "val_report_save_path": "outputs/reports/val_report.html"}}, "model_summary": "\"TransformerModel(\\n  (transformer): Transformer(\\n    (encoder): TransformerEncoder(\\n      (layers): ModuleList(\\n        (0): TransformerEncoderLayer(\\n          (self_attn): MultiheadAttention(\\n            (out_proj): NonDynamicallyQuantizableLinear(in_features=32, out_features=32, bias=True)\\n          )\\n          (linear1): Linear(in_features=32, out_features=64, bias=True)\\n          (dropout): Dropout(p=0, inplace=False)\\n          (linear2): Linear(in_features=64, out_features=32, bias=True)\\n          (norm1): LayerNorm((32,), eps=1e-05, elementwise_affine=True)\\n          (norm2): LayerNorm((32,), eps=1e-05, elementwise_affine=True)\\n          (dropout1): Dropout(p=0, inplace=False)\\n          (dropout2): Dropout(p=0, inplace=False)\\n        )\\n      )\\n      (norm): LayerNorm((32,), eps=1e-05, elementwise_affine=True)\\n    )\\n    (decoder): TransformerDecoder(\\n      (layers): ModuleList(\\n        (0): TransformerDecoderLayer(\\n          (self_attn): MultiheadAttention(\\n            (out_proj): NonDynamicallyQuantizableLinear(in_features=32, out_features=32, bias=True)\\n          )\\n          (multihead_attn): MultiheadAttention(\\n            (out_proj): NonDynamicallyQuantizableLinear(in_features=32, out_features=32, bias=True)\\n          )\\n          (linear1): Linear(in_features=32, out_features=64, bias=True)\\n          (dropout): Dropout(p=0, inplace=False)\\n          (linear2): Linear(in_features=64, out_features=32, bias=True)\\n          (norm1): LayerNorm((32,), eps=1e-05, elementwise_affine=True)\\n          (norm2): LayerNorm((32,), eps=1e-05, elementwise_affine=True)\\n          (norm3): LayerNorm((32,), eps=1e-05, elementwise_affine=True)\\n          (dropout1): Dropout(p=0, inplace=False)\\n          (dropout2): Dropout(p=0, inplace=False)\\n          (dropout3): Dropout(p=0, inplace=False)\\n        )\\n      )\\n      (norm): LayerNorm((32,), eps=1e-05, elementwise_affine=True)\\n    )\\n  )\\n  (fc_out): Linear(in_features=32, out_features=16, bias=True)\\n  (dropout): Dropout(p=0, inplace=False)\\n), \\nNumber of parameter: 22032\"", "trend_confusion_matrix_info": "{\"Accuracy\":{\"0\":0.2928931452},\"Precision\":{\"0\":0.0},\"Recall\":{\"0\":0.0},\"F1 Score\":{\"0\":0.0}}", "class_reversals_confusion_matrix_info": "{\"Accuracy\":{\"Peak\":1.0,\"No Reversal\":1.0,\"Valley\":1.0},\"Precision\":{\"Peak\":
…
