…
ck_data_with_signals_trend_before_after.png", "pred_days_difference_bar_chart_save_path": "DNN_Projects_l2/MA-20-5/all-DNN_5layers-5/plots/pred_days_difference_bar_chart.png", "roc_pr_curve_save_path": "DNN_Projects_l2/MA-20-5/all-DNN_5layers-5/plots/roc_pr_curve.png", "trading_details_kbar_save_path": "DNN_Projects_l2/MA-20-5/all-DNN_5layers-5/plots/trading_details_kbar.png", "report_save_path": "DNN_Projects_l2/MA-20-5/all-DNN_5layers-5/reports/report.html", "summary_save_path": "DNN_Projects_l2/MA-20-5/all-DNN_5layers-5/reports/summary.json"}}, "model_summary": "\"ModelDNN_5layers(\\n  (fc1): Linear(in_features=1920, out_features=1024, bias=True)\\n  (fc2): Linear(in_features=1024, out_features=512, bias=True)\\n  (fc3): Linear(in_features=512, out_features=256, bias=True)\\n  (fc4): Linear(in_features=256, out_features=128, bias=True)\\n  (fc5): Linear(in_features=128, out_features=64, bias=True)\\n  (ln1): LayerNorm((1024,), eps=1e-05, elementwise_affine=True)\\n  (ln2): LayerNorm((512,), eps=1e-05, elementwise_affine=True)\\n  (ln3): LayerNorm((256,), eps=1e-05, elementwise_affine=True)\\n  (ln4): LayerNorm((128,), eps=1e-05, elementwise_affine=True)\\n  (ln5): LayerNorm((64,), eps=1e-05, elementwise_affine=True)\\n  (dropout): Dropout(p=0.5, inplace=False)\\n), \\nNumber of parameter: 2668352\"", "trend_confusion_matrix_info": "{\"Accuracy\":{\"0\":0.6342329545},\"Precision\":{\"0\":0.5843130096},\"Recall\":{\"0\":0.5903726472},\"F1 Score\":{\"0\":0.5859067114},\"confusion_matrix\":{\"0\":[[687,289],[226,206]]}}", "reversed_trend_confusion_matrix_info": "{\"Accur
…
