…
-1-0.01/all-DNN_5layers-0.01/plots/pred_days_difference_bar_chart.png", "roc_pr_curve_save_path": "DNN_Projects_weights_learningRate/MA-20-1-0.01/all-DNN_5layers-0.01/plots/roc_pr_curve.png", "trading_details_kbar_save_path": "DNN_Projects_weights_learningRate/MA-20-1-0.01/all-DNN_5layers-0.01/plots/trading_details_kbar.png", "report_save_path": "DNN_Projects_weights_learningRate/MA-20-1-0.01/all-DNN_5layers-0.01/reports/report.html", "summary_save_path": "DNN_Projects_weights_learningRate/MA-20-1-0.01/all-DNN_5layers-0.01/reports/summary.json"}}, "model_summary": "\"ModelDNN_5layers(\\n  (fc1): Linear(in_features=1920, out_features=1024, bias=True)\\n  (fc2): Linear(in_features=1024, out_features=512, bias=True)\\n  (fc3): Linear(in_features=512, out_features=256, bias=True)\\n  (fc4): Linear(in_features=256, out_features=128, bias=True)\\n  (fc5): Linear(in_features=128, out_features=64, bias=True)\\n  (ln1): LayerNorm((1024,), eps=1e-05, elementwise_affine=True)\\n  (ln2): LayerNorm((512,), eps=1e-05, elementwise_affine=True)\\n  (ln3): LayerNorm((256,), eps=1e-05, elementwise_affine=True)\\n  (ln4): LayerNorm((128,), eps=1e-05, elementwise_affine=True)\\n  (ln5): LayerNorm((64,), eps=1e-05, elementwise_affine=True)\\n  (dropout): Dropout(p=0.5, inplace=False)\\n), \\nNumber of parameter: 2668352\"", "trend_confusion_matrix_info": "{\"Accuracy\":{\"0\":0.7237215909},\"Precision\":{\"0\":0.6772638688},\"Recall\":{\"0\":0.5968617183},\"F1 Score\":{\"0\":0.5981850128},\"confusion_matrix\":{\"0\":[[903,73],[316,116]]}}", "reversed_trend_confusion_matrix_info": "{\"Accura
…
